…
odel               : Transformer
embedding           : random
dataset             : DanMu
word                : False
pad                 : 10
<models.Transformer.Config object at 0x7fd329570410>
Loading data...
0it [00:00, ?it/s]47726it [00:00, 477242.25it/s]70000it [00:00, 482840.46it/s]
Vocab size: 2604
0it [00:00, ?it/s]26048it [00:00, 260473.42it/s]52096it [00:00, 228206.67it/s]70000it [00:00, 239869.54it/s]
0it [00:00, ?it/s]15001it [00:00, 163591.48it/s]
0it [00:00, ?it/s]15000it [00:00, 260428.43it/s]
Time usage: 0:00:01
<bound method Module.parameters of Model(
  (embedding): Embedding(2604, 300, padding_idx=2603)
  (postion_embedding): Positional_Encoding(
    (dropout): Dropout(p=0.2, inplace=False)
  )
  (encoder): Encoder(
    (attention): Multi_Head_Attention(
      (fc_Q): Linear(in_features=300, out_features=300, bias=True)
      (fc_K): Linear(in_features=300, out_features=300, bias=True)
      (fc_V): Linear(in_features=300, out_features=300, bias=True)
      (attention): Scaled_Dot_Product_Attention()
      (fc): Linear(in_features=300, out_features=300, bias=True)
      (dropout): Dropout(p=0.2, inplace=False)
      (layer_norm): LayerNorm((300,), eps=1e-05, elementwise_affine=True)
    )
    (feed_forward): Position_wise_Feed_Forward(
      (fc1): Linear(in_features=300, out_features=1024, bias=True)
      (fc2): Linear(in_features=1024, out_features=300, bias=True)
      (dropout): Dropout(p=0.2, inplace=False)
      (layer_norm): LayerNorm((300,), eps=1e-05, elementwise_affine=True)
    )
  )
  (encoders): ModuleList(
    (0): Encoder(
      (attention): Multi_Head_Attention(
        (fc_Q): Linear(in_features=300, out_features=300, bias=True)
        (fc_K): Linear(in_features=300, out_features=300, bias=True)
        (fc_V): Linear(in_features=300, out_features=300, bias=True)
        (attention): Scaled_Dot_Product_Attention()
        (fc): Linear(in_features=300, out_features=300, bias=True)
        (dropout): Dropout(p=0.2, inplace=False)
        (layer_norm): LayerNorm((300,), eps=1e-05, elementwise_affine=True)
      )
      (feed_forward): Position_wise_Feed_Forward(
        (fc1): Linear(in_features=300, out_features=1024, bias=True)
        (fc2): Linear(in_features=1024, out_features=300, bias=True)
        (dropout): Dropout(p=0.2, inplace=False)
        (layer_norm): LayerNorm((300,), eps=1e-05, elementwise_affine=True)
      )
    )
    (1): Encoder(
      (attention): Multi_Head_Attention(
        (fc_Q): Linear(in_features=300, out_features=300, bias=True)
        (fc_K): Linear(in_features=300, out_features=300, bias=True)
        (fc_V): Linear(in_features=300, out_features=300, bias=True)
        (attention): Scaled_Dot_Product_Attention()
        (fc): Linear(in_features=300, out_features=300, bias=True)
        (dropout): Dropout(p=0.2, inplace=False)
        (layer_norm): LayerNorm((300,), eps=1e-05, elementwise_affine=True)
      )
      (feed_forward): Position_wise_Feed_Forward(
        (fc1): Linear(in_features=300, out_features=1024, bias=True)
        (fc2): Linear(in_features=1024, out_features=300, bias=True)
        (dropout): Dropout(p=0.2, inplace=False)
        (layer_norm): LayerNorm((300,), eps=1e-05, elementwise_affine=True)
      )
    )
  )
  (fc): Sequential(
    (0): Dropout(p=0.2, inplace=False)
    (1): Linear(in_features=3000, out_features=2, bias=True)
  )
)>
Epoch [1/20]
  0%|          | 0/2187 [00:00<?, ?it/s]  0%|          | 1/2187 [00:00<25:48,  1.41it/s]  0%|          | 8/2187 [00:00<02:51, 12.69it/s]  1%|          | 15/2187 [00:00<01:32, 23.51it/s]  1%|          | 22/2187 [00:01<01:05, 33.22it/s]  1%|▏         | 29/2187 [00:01<00:52, 41.38it/s]  2%|▏         | 36/2187 [00:01<00:44, 48.15i
…
