…
odel               : Transformer
embedding           : random
dataset             : DanMu
word                : False
pad                 : 10
<models.Transformer.Config object at 0x7fa34016d2d0>
Loading data...
0it [00:00, ?it/s]47925it [00:00, 479225.32it/s]70000it [00:00, 483973.84it/s]
Vocab size: 2604
0it [00:00, ?it/s]26340it [00:00, 263388.95it/s]52679it [00:00, 229678.06it/s]70000it [00:00, 240816.67it/s]
0it [00:00, ?it/s]15001it [00:00, 163978.60it/s]
0it [00:00, ?it/s]15000it [00:00, 262750.52it/s]
Time usage: 0:00:01
<bound method Module.parameters of Model(
  (embedding): Embedding(2604, 300, padding_idx=2603)
  (postion_embedding): Positional_Encoding(
    (dropout): Dropout(p=0.2, inplace=False)
  )
  (encoder): Encoder(
    (attention): Multi_Head_Attention(
      (fc_Q): Linear(in_features=300, out_features=300, bias=True)
      (fc_K): Linear(in_features=300, out_features=300, bias=True)
      (fc_V): Linear(in_features=300, out_features=300, bias=True)
      (attention): Scaled_Dot_Product_Attention()
      (fc): Linear(in_features=300, out_features=300, bias=True)
      (dropout): Dropout(p=0.2, inplace=False)
      (layer_norm): LayerNorm((300,), eps=1e-05, elementwise_affine=True)
    )
    (feed_forward): Position_wise_Feed_Forward(
      (fc1): Linear(in_features=300, out_features=1024, bias=True)
      (fc2): Linear(in_features=1024, out_features=300, bias=True)
      (dropout): Dropout(p=0.2, inplace=False)
      (layer_norm): LayerNorm((300,), eps=1e-05, elementwise_affine=True)
    )
  )
  (encoders): ModuleList(
    (0): Encoder(
      (attention): Multi_Head_Attention(
        (fc_Q): Linear(in_features=300, out_features=300, bias=True)
        (fc_K): Linear(in_features=300, out_features=300, bias=True)
        (fc_V): Linear(in_features=300, out_features=300, bias=True)
        (attention): Scaled_Dot_Product_Attention()
        (fc): Linear(in_features=300, out_features=300, bias=True)
        (dropout): Dropout(p=0.2, inplace=False)
        (layer_norm): LayerNorm((300,), eps=1e-05, elementwise_affine=True)
      )
      (feed_forward): Position_wise_Feed_Forward(
        (fc1): Linear(in_features=300, out_features=1024, bias=True)
        (fc2): Linear(in_features=1024, out_features=300, bias=True)
        (dropout): Dropout(p=0.2, inplace=False)
        (layer_norm): LayerNorm((300,), eps=1e-05, elementwise_affine=True)
      )
    )
    (1): Encoder(
      (attention): Multi_Head_Attention(
        (fc_Q): Linear(in_features=300, out_features=300, bias=True)
        (fc_K): Linear(in_features=300, out_features=300, bias=True)
        (fc_V): Linear(in_features=300, out_features=300, bias=True)
        (attention): Scaled_Dot_Product_Attention()
        (fc): Linear(in_features=300, out_features=300, bias=True)
        (dropout): Dropout(p=0.2, inplace=False)
        (layer_norm): LayerNorm((300,), eps=1e-05, elementwise_affine=True)
      )
      (feed_forward): Position_wise_Feed_Forward(
        (fc1): Linear(in_features=300, out_features=1024, bias=True)
        (fc2): Linear(in_features=1024, out_features=300, bias=True)
        (dropout): Dropout(p=0.2, inplace=False)
        (layer_norm): LayerNorm((300,), eps=1e-05, elementwise_affine=True)
      )
    )
  )
  (fc): Sequential(
    (0): Dropout(p=0.2, inplace=False)
    (1): Linear(in_features=3000, out_features=2, bias=True)
  )
)>
Epoch [1/20]
  0%|          | 0/2187 [00:00<?, ?it/s]  0%|          | 1/2187 [00:00<24:25,  1.49it/s]  0%|          | 7/2187 [00:00<03:05, 11.75it/s]  1%|          | 14/2187 [00:00<01:33, 23.30it/s]  1%|          | 21/2187 [00:00<01:05, 33.25it/s]  1%|▏         | 28/2187 [00:01<00:51, 41.67it/s]  2%|▏         | 35/2187 [00:01<00:44, 48.30i
…
