…
pad                 : 10
<models.Transformer.Config object at 0x7f676ba42510>
Loading data...
0it [00:00, ?it/s]41846it [00:00, 418447.43it/s]84803it [00:00, 424985.51it/s]105000it [00:00, 421792.03it/s]
Vocab size: 3352
0it [00:00, ?it/s]25141it [00:00, 251399.45it/s]50281it [00:00, 219163.09it/s]75453it [00:00, 232923.56it/s]99000it [00:00, 210480.51it/s]105000it [00:00, 219536.31it/s]
0it [00:00, ?it/s]21671it [00:00, 148927.97it/s]22500it [00:00, 150954.61it/s]
0it [00:00, ?it/s]22500it [00:00, 246138.82it/s]
Time usage: 0:00:01
<bound method Module.parameters of Model(
  (embedding): Embedding(3352, 300, padding_idx=3351)
  (postion_embedding): Positional_Encoding(
    (dropout): Dropout(p=0.2, inplace=False)
  )
  (encoder): Encoder(
    (attention): Multi_Head_Attention(
      (fc_Q): Linear(in_features=300, out_features=300, bias=True)
      (fc_K): Linear(in_features=300, out_features=300, bias=True)
      (fc_V): Linear(in_features=300, out_features=300, bias=True)
      (attention): Scaled_Dot_Product_Attention()
      (fc): Linear(in_features=300, out_features=300, bias=True)
      (dropout): Dropout(p=0.2, inplace=False)
      (layer_norm): LayerNorm((300,), eps=1e-05, elementwise_affine=True)
    )
    (feed_forward): Position_wise_Feed_Forward(
      (fc1): Linear(in_features=300, out_features=1024, bias=True)
      (fc2): Linear(in_features=1024, out_features=300, bias=True)
      (dropout): Dropout(p=0.2, inplace=False)
      (layer_norm): LayerNorm((300,), eps=1e-05, elementwise_affine=True)
    )
  )
  (encoders): ModuleList(
    (0): Encoder(
      (attention): Multi_Head_Attention(
        (fc_Q): Linear(in_features=300, out_features=300, bias=True)
        (fc_K): Linear(in_features=300, out_features=300, bias=True)
        (fc_V): Linear(in_features=300, out_features=300, bias=True)
        (attention): Scaled_Dot_Product_Attention()
        (fc): Linear(in_features=300, out_features=300, bias=True)
        (dropout): Dropout(p=0.2, inplace=False)
        (layer_norm): LayerNorm((300,), eps=1e-05, elementwise_affine=True)
      )
      (feed_forward): Position_wise_Feed_Forward(
        (fc1): Linear(in_features=300, out_features=1024, bias=True)
        (fc2): Linear(in_features=1024, out_features=300, bias=True)
        (dropout): Dropout(p=0.2, inplace=False)
        (layer_norm): LayerNorm((300,), eps=1e-05, elementwise_affine=True)
      )
    )
    (1): Encoder(
      (attention): Multi_Head_Attention(
        (fc_Q): Linear(in_features=300, out_features=300, bias=True)
        (fc_K): Linear(in_features=300, out_features=300, bias=True)
        (fc_V): Linear(in_features=300, out_features=300, bias=True)
        (attention): Scaled_Dot_Product_Attention()
        (fc): Linear(in_features=300, out_features=300, bias=True)
        (dropout): Dropout(p=0.2, inplace=False)
        (layer_norm): LayerNorm((300,), eps=1e-05, elementwise_affine=True)
      )
      (feed_forward): Position_wise_Feed_Forward(
        (fc1): Linear(in_features=300, out_features=1024, bias=True)
        (fc2): Linear(in_features=1024, out_features=300, bias=True)
        (dropout): Dropout(p=0.2, inplace=False)
        (layer_norm): LayerNorm((300,), eps=1e-05, elementwise_affine=True)
      )
    )
  )
  (fc): Sequential(
    (0): Dropout(p=0.2, inplace=False)
    (1): Linear(in_features=3000, out_features=26, bias=True)
  )
)>
Epoch [1/20]
  0%|          | 0/3281 [00:00<?, ?it/s]  0%|          | 1/3281 [00:00<50:54,  1.07it/s]  0%|          | 8/3281 [00:01<05:25, 10.05it/s]  0%|          | 15/3281 [00:01<02:48, 19.40it/s]  1%|          | 22/3281 [00:01<01:54, 28.44it/s]  1%|          | 29/3281 [00:01<01:28, 36.65it/s]  1%|          | 36/3281 [00:01<01:13, 43.89
…
