…
pad                 : 10
<models.Transformer.Config object at 0x7f5d3c6554d0>
Loading data...
0it [00:00, ?it/s]41316it [00:00, 413143.65it/s]83661it [00:00, 419198.70it/s]105000it [00:00, 418948.41it/s]
Vocab size: 3352
0it [00:00, ?it/s]24842it [00:00, 247904.25it/s]49633it [00:00, 218309.81it/s]74893it [00:00, 232883.41it/s]98413it [00:00, 176128.95it/s]105000it [00:00, 195890.81it/s]
0it [00:00, ?it/s]21671it [00:00, 134173.10it/s]22500it [00:00, 136276.24it/s]
0it [00:00, ?it/s]22500it [00:00, 244266.41it/s]
Time usage: 0:00:01
<bound method Module.parameters of Model(
  (embedding): Embedding(3352, 300, padding_idx=3351)
  (postion_embedding): Positional_Encoding(
    (dropout): Dropout(p=0.2, inplace=False)
  )
  (encoder): Encoder(
    (attention): Multi_Head_Attention(
      (fc_Q): Linear(in_features=300, out_features=300, bias=True)
      (fc_K): Linear(in_features=300, out_features=300, bias=True)
      (fc_V): Linear(in_features=300, out_features=300, bias=True)
      (attention): Scaled_Dot_Product_Attention()
      (fc): Linear(in_features=300, out_features=300, bias=True)
      (dropout): Dropout(p=0.2, inplace=False)
      (layer_norm): LayerNorm((300,), eps=1e-05, elementwise_affine=True)
    )
    (feed_forward): Position_wise_Feed_Forward(
      (fc1): Linear(in_features=300, out_features=1024, bias=True)
      (fc2): Linear(in_features=1024, out_features=300, bias=True)
      (dropout): Dropout(p=0.2, inplace=False)
      (layer_norm): LayerNorm((300,), eps=1e-05, elementwise_affine=True)
    )
  )
  (encoders): ModuleList(
    (0): Encoder(
      (attention): Multi_Head_Attention(
        (fc_Q): Linear(in_features=300, out_features=300, bias=True)
        (fc_K): Linear(in_features=300, out_features=300, bias=True)
        (fc_V): Linear(in_features=300, out_features=300, bias=True)
        (attention): Scaled_Dot_Product_Attention()
        (fc): Linear(in_features=300, out_features=300, bias=True)
        (dropout): Dropout(p=0.2, inplace=False)
        (layer_norm): LayerNorm((300,), eps=1e-05, elementwise_affine=True)
      )
      (feed_forward): Position_wise_Feed_Forward(
        (fc1): Linear(in_features=300, out_features=1024, bias=True)
        (fc2): Linear(in_features=1024, out_features=300, bias=True)
        (dropout): Dropout(p=0.2, inplace=False)
        (layer_norm): LayerNorm((300,), eps=1e-05, elementwise_affine=True)
      )
    )
    (1): Encoder(
      (attention): Multi_Head_Attention(
        (fc_Q): Linear(in_features=300, out_features=300, bias=True)
        (fc_K): Linear(in_features=300, out_features=300, bias=True)
        (fc_V): Linear(in_features=300, out_features=300, bias=True)
        (attention): Scaled_Dot_Product_Attention()
        (fc): Linear(in_features=300, out_features=300, bias=True)
        (dropout): Dropout(p=0.2, inplace=False)
        (layer_norm): LayerNorm((300,), eps=1e-05, elementwise_affine=True)
      )
      (feed_forward): Position_wise_Feed_Forward(
        (fc1): Linear(in_features=300, out_features=1024, bias=True)
        (fc2): Linear(in_features=1024, out_features=300, bias=True)
        (dropout): Dropout(p=0.2, inplace=False)
        (layer_norm): LayerNorm((300,), eps=1e-05, elementwise_affine=True)
      )
    )
  )
  (fc): Sequential(
    (0): Dropout(p=0.2, inplace=False)
    (1): Linear(in_features=3000, out_features=26, bias=True)
  )
)>
Epoch [1/20]
  0%|          | 0/3281 [00:00<?, ?it/s]  0%|          | 1/3281 [00:00<49:24,  1.11it/s]  0%|          | 8/3281 [00:01<05:17, 10.32it/s]  0%|          | 15/3281 [00:01<02:44, 19.88it/s]  1%|          | 22/3281 [00:01<01:52, 28.97it/s]  1%|          | 29/3281 [00:01<01:26, 37.48it/s]  1%|          | 36/3281 [00:01<01:12, 44.80
…
