model               : Transformer
embedding           : random
dataset             : MPQA
word                : True
pad                 : 10
<models.Transformer.Config object at 0x7f8f4623e510>
Loading data...
0it [00:00, ?it/s]7423it [00:00, 784141.00it/s]
Vocab size: 825
0it [00:00, ?it/s]7423it [00:00, 284230.44it/s]
0it [00:00, ?it/s]1590it [00:00, 294642.72it/s]
0it [00:00, ?it/s]1590it [00:00, 269659.27it/s]
Time usage: 0:00:00
<bound method Module.parameters of Model(
  (embedding): Embedding(825, 300, padding_idx=824)
  (postion_embedding): Positional_Encoding(
    (dropout): Dropout(p=0.2, inplace=False)
  )
  (encoder): Encoder(
    (attention): Multi_Head_Attention(
      (fc_Q): Linear(in_features=300, out_features=300, bias=True)
      (fc_K): Linear(in_features=300, out_features=300, bias=True)
      (fc_V): Linear(in_features=300, out_features=300, bias=True)
      (attention): Scaled_Dot_Product_Attention()
      (fc): Linear(in_features=300, out_features=300, bias=True)
      (dropout): Dropout(p=0.2, inplace=False)
      (layer_norm): LayerNorm((300,), eps=1e-05, elementwise_affine=True)
    )
    (feed_forward): Position_wise_Feed_Forward(
      (fc1): Linear(in_features=300, out_features=1024, bias=True)
      (fc2): Linear(in_features=1024, out_features=300, bias=True)
      (dropout): Dropout(p=0.2, inplace=False)
      (layer_norm): LayerNorm((300,), eps=1e-05, elementwise_affine=True)
    )
  )
  (encoders): ModuleList(
    (0): Encoder(
      (attention): Multi_Head_Attention(
        (fc_Q): Linear(in_features=300, out_features=300, bias=True)
        (fc_K): Linear(in_features=300, out_features=300, bias=True)
        (fc_V): Linear(in_features=300, out_features=300, bias=True)
        (attention): Scaled_Dot_Product_Attention()
        (fc): Linear(in_features=300, out_features=300, bias=True)
        (dropout): Dropout(p=0.2, inplace=False)
        (layer_norm): LayerNorm((300,), eps=1e-05, elementwise_affine=True)
      )
      (feed_forward): Position_wise_Feed_Forward(
        (fc1): Linear(in_features=300, out_features=1024, bias=True)
        (fc2): Linear(in_features=1024, out_features=300, bias=True)
        (dropout): Dropout(p=0.2, inplace=False)
        (layer_norm): LayerNorm((300,), eps=1e-05, elementwise_affine=True)
      )
    )
    (1): Encoder(
      (attention): Multi_Head_Attention(
        (fc_Q): Linear(in_features=300, out_features=300, bias=True)
        (fc_K): Linear(in_features=300, out_features=300, bias=True)
        (fc_V): Linear(in_features=300, out_features=300, bias=True)
        (attention): Scaled_Dot_Product_Attention()
        (fc): Linear(in_features=300, out_features=300, bias=True)
        (dropout): Dropout(p=0.2, inplace=False)
        (layer_norm): LayerNorm((300,), eps=1e-05, elementwise_affine=True)
      )
      (feed_forward): Position_wise_Feed_Forward(
        (fc1): Linear(in_features=300, out_features=1024, bias=True)
        (fc2): Linear(in_features=1024, out_features=300, bias=True)
        (dropout): Dropout(p=0.2, inplace=False)
        (layer_norm): LayerNorm((300,), eps=1e-05, elementwise_affine=True)
      )
    )
  )
  (fc): Sequential(
    (0): Dropout(p=0.2, inplace=False)
    (1): Linear(in_features=3000, out_features=2, bias=True)
  )
)>
Epoch [1/20]
  0%|          | 0/231 [00:00<?, ?it/s]  0%|          | 1/231 [00:00<01:12,  3.17it/s]  3%|▎         | 7/231 [00:00<00:10, 20.70it/s]  6%|▌         | 14/231 [00:00<00:06, 34.92it/s]  9%|▉         | 21/231 [00:00<00:04, 44.35it/s] 12%|█▏        | 28/231 [00:00<00:04, 50.40it/s] 15%|█▌        | 35/231 [00:00<00:03, 54.68it/s] 1
…
