model               : Transformer
embedding           : random
dataset             : CR
word                : True
pad                 : 20
<models.Transformer.Config object at 0x7f69abf1b4d0>
Loading data...
Vocab size: 4569
0it [00:00, ?it/s]2639it [00:00, 68187.25it/s]
0it [00:00, ?it/s]566it [00:00, 156213.47it/s]
0it [00:00, ?it/s]565it [00:00, 153473.33it/s]
Time usage: 0:00:00
<bound method Module.parameters of Model(
  (embedding): Embedding(4569, 300, padding_idx=4568)
  (postion_embedding): Positional_Encoding(
    (dropout): Dropout(p=0.5, inplace=False)
  )
  (encoder): Encoder(
    (attention): Multi_Head_Attention(
      (fc_Q): Linear(in_features=300, out_features=300, bias=True)
      (fc_K): Linear(in_features=300, out_features=300, bias=True)
      (fc_V): Linear(in_features=300, out_features=300, bias=True)
      (attention): Scaled_Dot_Product_Attention()
      (fc): Linear(in_features=300, out_features=300, bias=True)
      (dropout): Dropout(p=0.5, inplace=False)
      (layer_norm): LayerNorm((300,), eps=1e-05, elementwise_affine=True)
    )
    (feed_forward): Position_wise_Feed_Forward(
      (fc1): Linear(in_features=300, out_features=1024, bias=True)
      (fc2): Linear(in_features=1024, out_features=300, bias=True)
      (dropout): Dropout(p=0.5, inplace=False)
      (layer_norm): LayerNorm((300,), eps=1e-05, elementwise_affine=True)
    )
  )
  (encoders): ModuleList(
    (0): Encoder(
      (attention): Multi_Head_Attention(
        (fc_Q): Linear(in_features=300, out_features=300, bias=True)
        (fc_K): Linear(in_features=300, out_features=300, bias=True)
        (fc_V): Linear(in_features=300, out_features=300, bias=True)
        (attention): Scaled_Dot_Product_Attention()
        (fc): Linear(in_features=300, out_features=300, bias=True)
        (dropout): Dropout(p=0.5, inplace=False)
        (layer_norm): LayerNorm((300,), eps=1e-05, elementwise_affine=True)
      )
      (feed_forward): Position_wise_Feed_Forward(
        (fc1): Linear(in_features=300, out_features=1024, bias=True)
        (fc2): Linear(in_features=1024, out_features=300, bias=True)
        (dropout): Dropout(p=0.5, inplace=False)
        (layer_norm): LayerNorm((300,), eps=1e-05, elementwise_affine=True)
      )
    )
    (1): Encoder(
      (attention): Multi_Head_Attention(
        (fc_Q): Linear(in_features=300, out_features=300, bias=True)
        (fc_K): Linear(in_features=300, out_features=300, bias=True)
        (fc_V): Linear(in_features=300, out_features=300, bias=True)
        (attention): Scaled_Dot_Product_Attention()
        (fc): Linear(in_features=300, out_features=300, bias=True)
        (dropout): Dropout(p=0.5, inplace=False)
        (layer_norm): LayerNorm((300,), eps=1e-05, elementwise_affine=True)
      )
      (feed_forward): Position_wise_Feed_Forward(
        (fc1): Linear(in_features=300, out_features=1024, bias=True)
        (fc2): Linear(in_features=1024, out_features=300, bias=True)
        (dropout): Dropout(p=0.5, inplace=False)
        (layer_norm): LayerNorm((300,), eps=1e-05, elementwise_affine=True)
      )
    )
  )
  (fc): Sequential(
    (0): Dropout(p=0.5, inplace=False)
    (1): Linear(in_features=6000, out_features=2, bias=True)
  )
)>
Epoch [1/20]
  0%|          | 0/41 [00:00<?, ?it/s]  2%|▏         | 1/41 [00:00<00:14,  2.84it/s] 15%|█▍        | 6/41 [00:00<00:02, 15.76it/s] 27%|██▋       | 11/41 [00:00<00:01, 24.63it/s] 41%|████▏     | 17/41 [00:00<00:00, 33.25it/s] 56%|█████▌    | 23/41 [00:00<00:00, 39.06it/s] 71%|███████   | 29/41 [00:00<00:00, 42.91it/s] 85%|████████▌ | 35/41 [00:01<00:00, 44.98it/s]100%|██████████| 41/41 [00:01<00:00, 47.39it/s]42it [00:01, 29.27it/s]                        
…
