…
odel               : Transformer
embedding           : random
dataset             : DanMu
word                : False
pad                 : 10
<models.Transformer.Config object at 0x7f2051038550>
Loading data...
0it [00:00, ?it/s]47601it [00:00, 476000.24it/s]70000it [00:00, 478975.23it/s]
Vocab size: 2604
0it [00:00, ?it/s]26440it [00:00, 264394.58it/s]52880it [00:00, 231631.70it/s]70000it [00:00, 242379.47it/s]
0it [00:00, ?it/s]15001it [00:00, 165768.92it/s]
0it [00:00, ?it/s]15000it [00:00, 262878.97it/s]
Time usage: 0:00:01
<bound method Module.parameters of Model(
  (embedding): Embedding(2604, 300, padding_idx=2603)
  (postion_embedding): Positional_Encoding(
    (dropout): Dropout(p=0.2, inplace=False)
  )
  (encoder): Encoder(
    (attention): Multi_Head_Attention(
      (fc_Q): Linear(in_features=300, out_features=300, bias=True)
      (fc_K): Linear(in_features=300, out_features=300, bias=True)
      (fc_V): Linear(in_features=300, out_features=300, bias=True)
      (attention): Scaled_Dot_Product_Attention()
      (fc): Linear(in_features=300, out_features=300, bias=True)
      (dropout): Dropout(p=0.2, inplace=False)
      (layer_norm): LayerNorm((300,), eps=1e-05, elementwise_affine=True)
    )
    (feed_forward): Position_wise_Feed_Forward(
      (fc1): Linear(in_features=300, out_features=1024, bias=True)
      (fc2): Linear(in_features=1024, out_features=300, bias=True)
      (dropout): Dropout(p=0.2, inplace=False)
      (layer_norm): LayerNorm((300,), eps=1e-05, elementwise_affine=True)
    )
  )
  (encoders): ModuleList(
    (0): Encoder(
      (attention): Multi_Head_Attention(
        (fc_Q): Linear(in_features=300, out_features=300, bias=True)
        (fc_K): Linear(in_features=300, out_features=300, bias=True)
        (fc_V): Linear(in_features=300, out_features=300, bias=True)
        (attention): Scaled_Dot_Product_Attention()
        (fc): Linear(in_features=300, out_features=300, bias=True)
        (dropout): Dropout(p=0.2, inplace=False)
        (layer_norm): LayerNorm((300,), eps=1e-05, elementwise_affine=True)
      )
      (feed_forward): Position_wise_Feed_Forward(
        (fc1): Linear(in_features=300, out_features=1024, bias=True)
        (fc2): Linear(in_features=1024, out_features=300, bias=True)
        (dropout): Dropout(p=0.2, inplace=False)
        (layer_norm): LayerNorm((300,), eps=1e-05, elementwise_affine=True)
      )
    )
    (1): Encoder(
      (attention): Multi_Head_Attention(
        (fc_Q): Linear(in_features=300, out_features=300, bias=True)
        (fc_K): Linear(in_features=300, out_features=300, bias=True)
        (fc_V): Linear(in_features=300, out_features=300, bias=True)
        (attention): Scaled_Dot_Product_Attention()
        (fc): Linear(in_features=300, out_features=300, bias=True)
        (dropout): Dropout(p=0.2, inplace=False)
        (layer_norm): LayerNorm((300,), eps=1e-05, elementwise_affine=True)
      )
      (feed_forward): Position_wise_Feed_Forward(
        (fc1): Linear(in_features=300, out_features=1024, bias=True)
        (fc2): Linear(in_features=1024, out_features=300, bias=True)
        (dropout): Dropout(p=0.2, inplace=False)
        (layer_norm): LayerNorm((300,), eps=1e-05, elementwise_affine=True)
      )
    )
  )
  (fc): Sequential(
    (0): Dropout(p=0.2, inplace=False)
    (1): Linear(in_features=3000, out_features=2, bias=True)
  )
)>
Epoch [1/20]
  0%|          | 0/2187 [00:00<?, ?it/s]  0%|          | 1/2187 [00:00<25:12,  1.45it/s]  0%|          | 7/2187 [00:00<03:11, 11.40it/s]  1%|          | 14/2187 [00:00<01:35, 22.77it/s]  1%|          | 21/2187 [00:01<01:06, 32.66it/s]  1%|▏         | 28/2187 [00:01<00:52, 40.85it/s]  2%|▏         | 35/2187 [00:01<00:45, 46.98i
…
