…
pad                 : 10
<models.Transformer.Config object at 0x7f1008048510>
Loading data...
0it [00:00, ?it/s]40403it [00:00, 404009.19it/s]82031it [00:00, 411217.59it/s]105000it [00:00, 410084.00it/s]
Vocab size: 3352
0it [00:00, ?it/s]24826it [00:00, 248253.13it/s]49652it [00:00, 204903.98it/s]73868it [00:00, 220158.05it/s]96316it [00:00, 174702.89it/s]105000it [00:00, 193014.82it/s]
0it [00:00, ?it/s]21671it [00:00, 142801.56it/s]22500it [00:00, 144852.72it/s]
0it [00:00, ?it/s]22500it [00:00, 244726.92it/s]
Time usage: 0:00:01
<bound method Module.parameters of Model(
  (embedding): Embedding(3352, 300, padding_idx=3351)
  (postion_embedding): Positional_Encoding(
    (dropout): Dropout(p=0.2, inplace=False)
  )
  (encoder): Encoder(
    (attention): Multi_Head_Attention(
      (fc_Q): Linear(in_features=300, out_features=300, bias=True)
      (fc_K): Linear(in_features=300, out_features=300, bias=True)
      (fc_V): Linear(in_features=300, out_features=300, bias=True)
      (attention): Scaled_Dot_Product_Attention()
      (fc): Linear(in_features=300, out_features=300, bias=True)
      (dropout): Dropout(p=0.2, inplace=False)
      (layer_norm): LayerNorm((300,), eps=1e-05, elementwise_affine=True)
    )
    (feed_forward): Position_wise_Feed_Forward(
      (fc1): Linear(in_features=300, out_features=1024, bias=True)
      (fc2): Linear(in_features=1024, out_features=300, bias=True)
      (dropout): Dropout(p=0.2, inplace=False)
      (layer_norm): LayerNorm((300,), eps=1e-05, elementwise_affine=True)
    )
  )
  (encoders): ModuleList(
    (0): Encoder(
      (attention): Multi_Head_Attention(
        (fc_Q): Linear(in_features=300, out_features=300, bias=True)
        (fc_K): Linear(in_features=300, out_features=300, bias=True)
        (fc_V): Linear(in_features=300, out_features=300, bias=True)
        (attention): Scaled_Dot_Product_Attention()
        (fc): Linear(in_features=300, out_features=300, bias=True)
        (dropout): Dropout(p=0.2, inplace=False)
        (layer_norm): LayerNorm((300,), eps=1e-05, elementwise_affine=True)
      )
      (feed_forward): Position_wise_Feed_Forward(
        (fc1): Linear(in_features=300, out_features=1024, bias=True)
        (fc2): Linear(in_features=1024, out_features=300, bias=True)
        (dropout): Dropout(p=0.2, inplace=False)
        (layer_norm): LayerNorm((300,), eps=1e-05, elementwise_affine=True)
      )
    )
    (1): Encoder(
      (attention): Multi_Head_Attention(
        (fc_Q): Linear(in_features=300, out_features=300, bias=True)
        (fc_K): Linear(in_features=300, out_features=300, bias=True)
        (fc_V): Linear(in_features=300, out_features=300, bias=True)
        (attention): Scaled_Dot_Product_Attention()
        (fc): Linear(in_features=300, out_features=300, bias=True)
        (dropout): Dropout(p=0.2, inplace=False)
        (layer_norm): LayerNorm((300,), eps=1e-05, elementwise_affine=True)
      )
      (feed_forward): Position_wise_Feed_Forward(
        (fc1): Linear(in_features=300, out_features=1024, bias=True)
        (fc2): Linear(in_features=1024, out_features=300, bias=True)
        (dropout): Dropout(p=0.2, inplace=False)
        (layer_norm): LayerNorm((300,), eps=1e-05, elementwise_affine=True)
      )
    )
  )
  (fc): Sequential(
    (0): Dropout(p=0.2, inplace=False)
    (1): Linear(in_features=3000, out_features=26, bias=True)
  )
)>
Epoch [1/20]
  0%|          | 0/3281 [00:00<?, ?it/s]  0%|          | 1/3281 [00:00<49:23,  1.11it/s]  0%|          | 8/3281 [00:01<05:17, 10.30it/s]  0%|          | 15/3281 [00:01<02:44, 19.86it/s]  1%|          | 22/3281 [00:01<01:51, 29.11it/s]  1%|          | 29/3281 [00:01<01:26, 37.67it/s]  1%|          | 36/3281 [00:01<01:12, 44.96
…
