…
embedding           : random
dataset             : CVQD
word                : False
pad                 : 10
<models.Transformer.Config object at 0x7f42b4501210>
Loading data...
Vocab size: 4985
0it [00:00, ?it/s]17619it [00:00, 176130.54it/s]39599it [00:00, 201809.06it/s]59781it [00:00, 182623.16it/s]82332it [00:00, 198537.63it/s]102406it [00:00, 170153.28it/s]105000it [00:00, 180083.20it/s]
0it [00:00, ?it/s]22500it [00:00, 230446.13it/s]
0it [00:00, ?it/s]12929it [00:00, 90626.61it/s]22500it [00:00, 123609.75it/s]
Time usage: 0:00:01
<bound method Module.parameters of Model(
  (embedding): Embedding(4985, 300, padding_idx=4984)
  (postion_embedding): Positional_Encoding(
    (dropout): Dropout(p=0.5, inplace=False)
  )
  (encoder): Encoder(
    (attention): Multi_Head_Attention(
      (fc_Q): Linear(in_features=300, out_features=300, bias=True)
      (fc_K): Linear(in_features=300, out_features=300, bias=True)
      (fc_V): Linear(in_features=300, out_features=300, bias=True)
      (attention): Scaled_Dot_Product_Attention()
      (fc): Linear(in_features=300, out_features=300, bias=True)
      (dropout): Dropout(p=0.5, inplace=False)
      (layer_norm): LayerNorm((300,), eps=1e-05, elementwise_affine=True)
    )
    (feed_forward): Position_wise_Feed_Forward(
      (fc1): Linear(in_features=300, out_features=1024, bias=True)
      (fc2): Linear(in_features=1024, out_features=300, bias=True)
      (dropout): Dropout(p=0.5, inplace=False)
      (layer_norm): LayerNorm((300,), eps=1e-05, elementwise_affine=True)
    )
  )
  (encoders): ModuleList(
    (0): Encoder(
      (attention): Multi_Head_Attention(
        (fc_Q): Linear(in_features=300, out_features=300, bias=True)
        (fc_K): Linear(in_features=300, out_features=300, bias=True)
        (fc_V): Linear(in_features=300, out_features=300, bias=True)
        (attention): Scaled_Dot_Product_Attention()
        (fc): Linear(in_features=300, out_features=300, bias=True)
        (dropout): Dropout(p=0.5, inplace=False)
        (layer_norm): LayerNorm((300,), eps=1e-05, elementwise_affine=True)
      )
      (feed_forward): Position_wise_Feed_Forward(
        (fc1): Linear(in_features=300, out_features=1024, bias=True)
        (fc2): Linear(in_features=1024, out_features=300, bias=True)
        (dropout): Dropout(p=0.5, inplace=False)
        (layer_norm): LayerNorm((300,), eps=1e-05, elementwise_affine=True)
      )
    )
    (1): Encoder(
      (attention): Multi_Head_Attention(
        (fc_Q): Linear(in_features=300, out_features=300, bias=True)
        (fc_K): Linear(in_features=300, out_features=300, bias=True)
        (fc_V): Linear(in_features=300, out_features=300, bias=True)
        (attention): Scaled_Dot_Product_Attention()
        (fc): Linear(in_features=300, out_features=300, bias=True)
        (dropout): Dropout(p=0.5, inplace=False)
        (layer_norm): LayerNorm((300,), eps=1e-05, elementwise_affine=True)
      )
      (feed_forward): Position_wise_Feed_Forward(
        (fc1): Linear(in_features=300, out_features=1024, bias=True)
        (fc2): Linear(in_features=1024, out_features=300, bias=True)
        (dropout): Dropout(p=0.5, inplace=False)
        (layer_norm): LayerNorm((300,), eps=1e-05, elementwise_affine=True)
      )
    )
  )
  (fc): Sequential(
    (0): Dropout(p=0.5, inplace=False)
    (1): Linear(in_features=3000, out_features=26, bias=True)
  )
)>
Epoch [1/20]
  0%|          | 0/1640 [00:00<?, ?it/s]  0%|          | 1/1640 [00:01<31:23,  1.15s/it]  1%|          | 10/1640 [00:01<02:33, 10.63it/s]  1%|          | 19/1640 [00:01<01:16, 21.20it/s]  2%|▏         | 27/1640 [00:01<00:53, 30.33it/s]  2%|▏         | 36/1640 [00:01<00:39, 40.83it/s]  3%|▎         | 44/1640 [00:01<00:32, 48.9
…
