…
pad                 : 10
<models.Transformer.Config object at 0x7f5d160be3d0>
Loading data...
0it [00:00, ?it/s]40626it [00:00, 406246.83it/s]82419it [00:00, 413113.63it/s]105000it [00:00, 385701.70it/s]
Vocab size: 3352
0it [00:00, ?it/s]25535it [00:00, 255337.46it/s]51069it [00:00, 211005.12it/s]76692it [00:00, 229533.95it/s]100118it [00:00, 184473.74it/s]105000it [00:00, 200609.17it/s]
0it [00:00, ?it/s]21671it [00:00, 150902.00it/s]22500it [00:00, 152837.55it/s]
0it [00:00, ?it/s]22500it [00:00, 253917.77it/s]
Time usage: 0:00:01
<bound method Module.parameters of Model(
  (embedding): Embedding(3352, 300, padding_idx=3351)
  (postion_embedding): Positional_Encoding(
    (dropout): Dropout(p=0.2, inplace=False)
  )
  (encoder): Encoder(
    (attention): Multi_Head_Attention(
      (fc_Q): Linear(in_features=300, out_features=300, bias=True)
      (fc_K): Linear(in_features=300, out_features=300, bias=True)
      (fc_V): Linear(in_features=300, out_features=300, bias=True)
      (attention): Scaled_Dot_Product_Attention()
      (fc): Linear(in_features=300, out_features=300, bias=True)
      (dropout): Dropout(p=0.2, inplace=False)
      (layer_norm): LayerNorm((300,), eps=1e-05, elementwise_affine=True)
    )
    (feed_forward): Position_wise_Feed_Forward(
      (fc1): Linear(in_features=300, out_features=1024, bias=True)
      (fc2): Linear(in_features=1024, out_features=300, bias=True)
      (dropout): Dropout(p=0.2, inplace=False)
      (layer_norm): LayerNorm((300,), eps=1e-05, elementwise_affine=True)
    )
  )
  (encoders): ModuleList(
    (0): Encoder(
      (attention): Multi_Head_Attention(
        (fc_Q): Linear(in_features=300, out_features=300, bias=True)
        (fc_K): Linear(in_features=300, out_features=300, bias=True)
        (fc_V): Linear(in_features=300, out_features=300, bias=True)
        (attention): Scaled_Dot_Product_Attention()
        (fc): Linear(in_features=300, out_features=300, bias=True)
        (dropout): Dropout(p=0.2, inplace=False)
        (layer_norm): LayerNorm((300,), eps=1e-05, elementwise_affine=True)
      )
      (feed_forward): Position_wise_Feed_Forward(
        (fc1): Linear(in_features=300, out_features=1024, bias=True)
        (fc2): Linear(in_features=1024, out_features=300, bias=True)
        (dropout): Dropout(p=0.2, inplace=False)
        (layer_norm): LayerNorm((300,), eps=1e-05, elementwise_affine=True)
      )
    )
    (1): Encoder(
      (attention): Multi_Head_Attention(
        (fc_Q): Linear(in_features=300, out_features=300, bias=True)
        (fc_K): Linear(in_features=300, out_features=300, bias=True)
        (fc_V): Linear(in_features=300, out_features=300, bias=True)
        (attention): Scaled_Dot_Product_Attention()
        (fc): Linear(in_features=300, out_features=300, bias=True)
        (dropout): Dropout(p=0.2, inplace=False)
        (layer_norm): LayerNorm((300,), eps=1e-05, elementwise_affine=True)
      )
      (feed_forward): Position_wise_Feed_Forward(
        (fc1): Linear(in_features=300, out_features=1024, bias=True)
        (fc2): Linear(in_features=1024, out_features=300, bias=True)
        (dropout): Dropout(p=0.2, inplace=False)
        (layer_norm): LayerNorm((300,), eps=1e-05, elementwise_affine=True)
      )
    )
  )
  (fc): Sequential(
    (0): Dropout(p=0.2, inplace=False)
    (1): Linear(in_features=3000, out_features=26, bias=True)
  )
)>
Epoch [1/20]
  0%|          | 0/3281 [00:00<?, ?it/s]  0%|          | 1/3281 [00:03<2:47:25,  3.06s/it]  0%|          | 2/3281 [00:03<1:12:34,  1.33s/it]  0%|          | 3/3281 [00:03<42:10,  1.30it/s]    0%|          | 4/3281 [00:03<28:05,  1.94it/s]  0%|          | 5/3281 [00:03<20:17,  2.69it/s]  0%|          | 6/3281 [00:03<15:34,  3.
…
